data.pth (torch, 6719 bytes, 6 tensors)

l1.weight f4 [8, 84]
0	0xbf1da9a8	-0.61587
1	0x3e3313db	0.17488043
2	0xbe85d314	-0.26137602
3	0xbed0d49f	-0.40787217
4	0xbea55453	-0.32290897
5	0xbee7466f	-0.45170924
6	0x3e147d85	0.14501007
7	0x3f41448d	0.75495225
8	0xbe93c91f	-0.2886438
9	0xbdc1a561	-0.09455372
10	0xbf0251b8	-0.5090594
11	0xbd96f341	-0.07370616
12	0x3f413cb4	0.7548325
13	0x3f1fd737	0.62437767
14	0xbf1b7cd7	-0.60737365
15	0x3ec17d30	0.37790823
16	0x3e72d51c	0.23714107
17	0xbeafb9c7	-0.34321424
18	0x3ef65054	0.4810816
19	0x3c94a786	0.018146288
20	0x3ec810dd	0.39075366
21	0x3e0bd336	0.1365479
22	0xbf016f64	-0.50560594
23	0x3ee2462c	0.44194162
24	0x3ecd4a10	0.40095568
25	0xbed7c645	-0.42143455
26	0x3e3037d5	0.17208798
27	0xbe93f1c9	-0.28895405
28	0xbedd48a2	-0.43219477
29	0x3ed2d38c	0.41177022
30	0xbb3de619	-0.002897626
31	0x3ed63b99	0.41842344
32	0x3ec0f598	0.37687373
33	0x3f764c50	0.96210194
34	0x3f0c2001	0.54736334
35	0x3f0378dc	0.5135629
36	0x3eadb855	0.33929697
37	0x3d76c5d0	0.060247242
38	0x3f1c9004	0.6115725
39	0xbd969078	-0.07351774
40	0x3ee86666	0.45390624
41	0x3d3c2ef9	0.045943234
42	0x3f0ae8b4	0.54261327
43	0xbf82eab6	-1.0227878
44	0xbee3c79c	-0.44488227
45	0x3f2e7d22	0.6815969
46	0x3e4f699b	0.20255129
47	0xbd68e9fb	-0.056863766
48	0x3ec12e35	0.37730566
49	0x3e764782	0.24050716
50	0xbe01435e	-0.12623355
51	0x3e9ad16f	0.3023791
52	0xbea25061	-0.3170195
53	0xbf0ccb7a	-0.5499798
54	0xbdc4a7e0	-0.09602332
55	0xbf77f5f2	-0.9685966
56	0xbee24f3d	-0.4420108
57	0xbe2368ef	-0.15957998
58	0xbe1220d0	-0.1427033
59	0xbecdde0c	-0.4020847
60	0x3e2b09ff	0.16703032
61	0xbedb23ef	-0.42800853
62	0x3f8417fc	1.031982
63	0x3f395fb9	0.72411686
64	0x3edbd80b	0.42938265
65	0x3d848478	0.06470579
66	0xbd4b4c83	-0.049633514
67	0x3cd1f660	0.025630176
68	0x3e3f66a2	0.18691495
69	0xbe783b55	-0.24241383
70	0xbe7c2e4e	-0.24627039
71	0x3f1c8ead	0.61155206
72	0xbe98008c	-0.29687917
73	0x3f0b6053	0.54443854
74	0xbe8536b8	-0.2601831
75	0xbeee3796	-0.46526784
76	0xbf2ab7b2	-0.66686547
77	0x3ea32b54	0.31868994
78	0x3f2f0115	0.68361026
79	0x3eb18132	0.3466888
80	0xbd7d567b	-0.061850052
81	0x3ebd887c	0.37018192
82	0x3daca9af	0.08430802
83	0xbedbb5bf	-0.429121
84	0x3e0de3e8	0.1385647
85	0xbe08a1c1	-0.13342954
86	0x3edf7346	0.43642634
87	0xbd350ada	-0.044199802
88	0xbedb845f	-0.4287443
89	0xbe6c3e79	-0.23070706
90	0x3ef72860	0.4827299
91	0x3f659382	0.89678204
92	0xbf0e7ac8	-0.556561
93	0x3e8c1802	0.27362067
94	0x3f00633d	0.50151426
95	0x3efd550a	0.49478942
96	0xbe8416b5	-0.25798574
97	0xbf5efbce	-0.87102973
98	0x3f0dc675	0.55380946
99	0x3c8a09f1	0.016850444
100	0xbe85c5d2	-0.26127487
101	0x3ee97c12	0.4560247
102	0x3f496ce3	0.7868177
103	0x3dd3ea30	0.10347402
104	0x3f1531a1	0.5827885
105	0x3da18421	0.0788653
106	0x3e58beaa	0.21166483
107	0x3efef418	0.49795604
108	0x3ed51d5f	0.4162397
109	0xbe4fe077	-0.2030047
110	0xbe9c1576	-0.30485123
111	0xbf10e77b	-0.5660321
112	0xbf47536d	-0.7786167
113	0xbf10e782	-0.5660325
114	0xbec7a6c7	-0.3899443
115	0xbf0bca46	-0.5460552
116	0xbf10e96b	-0.5660617
117	0x3f5c1693	0.85971946
118	0x3e811977	0.2521474
119	0x3f1a06df	0.60166734
120	0x3f04b036	0.51831377
121	0x3f1ddc78	0.61664534
122	0x3cd7fac2	0.026364688
123	0x3e0e2228	0.13880217
124	0x3f168462	0.5879575
125	0x3f87fe9c	1.0624576
126	0xbe13d3ff	-0.14436339
127	0x3f8c30f8	1.0952444
128	0xbf20b8e4	-0.6278212
129	0x3f5cc73b	0.862415
130	0x3d4030d1	0.046921555
131	0xbd10a73b	-0.035315733
132	0xbefadb38	-0.48995376
133	0xbf0482d1	-0.5176211
134	0x3e823780	0.25432968
135	0xbeb70399	-0.35744932
136	0x3ed7a709	0.42119625
137	0xbef19b66	-0.47188872
138	0x3f7cb812	0.9871837
139	0x3ef2e8b7	0.47443172
140	0x3daf188e	0.08549605
141	0x3ec2fd5b	0.3808392
142	0x3f148736	0.58018816
143	0xbee49502	-0.44644934
144	0x3f1d0a3e	0.61343753
145	0x3f6a6269	0.9155641
146	0x3ee65e9f	0.44994065
147	0xbf5559e1	-0.8334027
148	0x3df73424	0.12070492
149	0x3ef40ba6	0.47665137
150	0xbf17440f	-0.59088224
151	0xbea108de	-0.31452078
152	0x3f403e99	0.75095516
153	0x3ef8bfe8	0.48583913
154	0xbea82438	-0.32840133
155	0xbf03a198	-0.5141845
156	0xbee39b47	-0.44454405
157	0x3f099c9f	0.5375461
158	0x3e90c078	0.28271842
159	0x3f89113a	1.0708382
160	0xbe4ae10a	-0.19812408
161	0x3f808580	1.0040741
162	0xbe6e856a	-0.23293081
163	0x3f3a01da	0.72659075
164	0xbe390dc6	-0.1807166
165	0x3f6882e3	0.9082472
166	0x3ec55964	0.38544762
167	0x3ccac91d	0.024754101
168	0x3ec3638e	0.38161892
169	0x3edd3505	0.43204513
170	0x3eebf1d0	0.46082926
171	0xbeab0151	-0.33399442
172	0x3f16405d	0.5869196
173	0x3f0aa760	0.54161644
174	0xbe45f064	-0.19329983
175	0xbe852616	-0.2600562
176	0x3ec14f80	0.37755966
177	0x3d30f14f	0.04319888
178	0xbf4b3379	-0.79375416
179	0xbebeda55	-0.3727595
180	0x3f20f22a	0.62869513
181	0x3f85d242	1.045479
182	0xbedb9827	-0.4288952
183	0xbf5cdff1	-0.8627921
184	0x3f0364b8	0.5132556
185	0xbf48c8ff	-0.78431696
186	0x3ed1631d	0.4089593
187	0xbd6f399e	-0.058404557
188	0x3dfcf98f	0.12352287
189	0xbf3f82db	-0.74809045
190	0xbe094bee	-0.13407871
191	0x3f039bd1	0.5140963
192	0x3f042c01	0.51629645
193	0x3e97436a	0.2954362
194	0x3ee720ba	0.45142156
195	0x3ec94972	0.39313847
196	0xbe5c48eb	-0.21512191
197	0x3f462018	0.7739272
198	0x3f1f584e	0.6224412
199	0x3f440fac	0.76586413
200	0x3f2d8252	0.6777698
201	0xbf436c8e	-0.76337516
202	0xbf439321	-0.76396376
203	0x3eb470f1	0.35242417
204	0x3ec657b6	0.38738793
205	0x3e12b825	0.14328058
206	0x3ddf65f0	0.10908115
207	0x3e98d6bf	0.29851338
208	0x3e33e6aa	0.1756846
209	0xbd90e90b	-0.070756994
210	0x3e21b8e3	0.15793185
211	0xbf0cf8d1	-0.55067164
212	0x3e39c908	0.18143094
213	0x3e6d0e90	0.23150086
214	0x3ef0e4b3	0.47049484
215	0x3e8f2110	0.27954912
216	0x3f1abccd	0.6044434
217	0x3f22296c	0.63344455
218	0x3eb79444	0.35855305
219	0x3f15bc54	0.5849049
220	0x3e9f76b8	0.31145263
221	0xbe38593a	-0.18002787
222	0x3d5ac8df	0.05341422
223	0xbf477ca3	-0.77924556
224	0x3f35d1e7	0.7102341
225	0xbe3a47d6	-0.18191466
226	0x3e4c76bb	0.19967167
227	0xbe8ea55a	-0.27860528
228	0x3e02a44d	0.12757988
229	0x3f858445	1.043099
230	0x3efa887a	0.48932248
231	0xbe2b6b6a	-0.16740194
232	0xbe01e4de	-0.12684962
233	0xbe55ef88	-0.20892155
234	0x3f8069fb	1.0032343
235	0x3efb414e	0.4907326
236	0xbe81c3b1	-0.25344613
237	0xbe986beb	-0.29769835
238	0x3f03f8ef	0.5155172
239	0x3de6597e	0.11247538
240	0x3e7a54f0	0.24446464
241	0xbdd0004f	-0.10156309
242	0x3f02f30b	0.51152104
243	0xbe53420d	-0.20630665
244	0x3f3497fb	0.70544404
245	0x3df88918	0.121355236
246	0x3e75e1fc	0.24011987
247	0xba4cbed8	-0.00078104204
248	0xbf46da51	-0.77676874
249	0xbf79bbbf	-0.975521
250	0xbded5e8f	-0.11590301
251	0x3f3e286d	0.74280435
252	0x3f515bc1	0.8178063
253	0x3ef86b2f	0.48519275
254	0x3e927430	0.2860427
255	0xbf15b2df	-0.5847606

l1.bias f4 [8]
0	0x3e93cf5d	0.28869143
1	0x3f10e96e	0.56606185
2	0x3f9b32dd	1.2124897
3	0x3f015060	0.5051327
4	0x3f83ced8	1.0297499
5	0x3f2a413a	0.6650578
6	0x3eec9b6e	0.46212333
7	0x3f3ca0ad	0.7368267

l2.weight f4 [8, 8]
0	0x3fccfa7e	1.6013944
1	0x3e8919d1	0.2677751
2	0x3f27e2ba	0.6558033
3	0x3d87f85a	0.06639166
4	0x3dd5ba5f	0.10435938
5	0xbf22beab	-0.63572186
6	0xbf9acc00	-1.2093506
7	0x3facb5b6	1.3492954
8	0x3f25a104	0.64698815
9	0x3f373fa1	0.71581465
10	0x3c8c677f	0.017139195
11	0x3f94dda9	1.1630145
12	0x3f11863c	0.5684545
13	0xbfe147cc	-1.7600036
14	0x3ecef3f3	0.40420493
15	0x3f36f293	0.7146389
16	0x3fb08b7d	1.3792568
17	0xbe8436f2	-0.2582317
18	0x3fa56571	1.2921582
19	0x3f51ee7e	0.82004535
20	0xbf476997	-0.7789549
21	0xbf8a62fe	-1.081146
22	0x401891ca	2.3838983
23	0x3ee5b7fa	0.44866925
24	0xbf56b7bc	-0.83874106
25	0xbf23620b	-0.63821477
26	0x3f5bc374	0.8584511
27	0xbf2f5974	-0.6849587
28	0x4001c5ca	2.027697
29	0x3f0c3c27	0.54779285
30	0xbf69c60b	-0.91317815
31	0x3ece3f79	0.402828
32	0xbf05fb93	-0.52336997
33	0xbe2fa1e4	-0.171516
34	0x3fe30c90	1.7738209
35	0x3fff4a2e	1.9944513
36	0x3f691e8f	0.91062254
37	0x3f35a1f1	0.7095023
38	0x3f15aaea	0.5846392
39	0xbf86d559	-1.0533859
40	0xbdff5224	-0.12466839
41	0xbe50b64b	-0.20382039
42	0xbda66ee6	-0.08126621
43	0x3e931262	0.28724962
44	0xbe9a1126	-0.30091208
45	0xbdf79940	-0.12089777
46	0xbc1fe56b	-0.009759287
47	0x3c678520	0.014130861
48	0xbebe3efc	-0.37157428
49	0xbd4ed860	-0.05049932
50	0x3fcefa90	1.6170216
51	0xbf2e7340	-0.6814461
52	0xbede5dcc	-0.43430936
53	0xbee7a067	-0.45239565
54	0x3db20c81	0.08693791
55	0x3f48b46c	0.784003
56	0xbd267333	-0.040637206
57	0x3fe62c28	1.7982225
58	0xbf3db81b	-0.7410905
59	0xbf81c3f0	-1.013792
60	0xbe6e20d0	-0.23254704
61	0x3fe3089e	1.7737005
62	0x3e39a632	0.18129805
63	0x3fc3f460	1.5308952

l2.bias f4 [8]
0	0x3edef048	0.43542695
1	0xbf219399	-0.6311584
2	0x3ebf2682	0.37334067
3	0x3f5af063	0.8552305
4	0x3eef22ab	0.46706137
5	0xbe48df57	-0.19616447
6	0x3f00b37d	0.5027388
7	0x3f009e56	0.502416

l3.weight f4 [16, 8]
0	0xbf7e9091	-0.9943934
1	0xbf9508c3	-1.1643299
2	0x3ef99d45	0.487528
3	0xbf7eeef6	-0.99583375
4	0xbf669397	-0.90068954
5	0x3e8b402d	0.271974
6	0xc0096ab1	-2.147137
7	0x3f6b95a5	0.92025214
8	0x3b80b98c	0.003928369
9	0xbf4e278b	-0.8052909
10	0xbf71f7ec	-0.94518924
11	0x3e4719f6	0.19443497
12	0xbf1707fa	-0.58996546
13	0x3cf83180	0.030297041
14	0x3f1b0585	0.605553
15	0x3e17fee2	0.14843324
16	0xbeafdde7	-0.34348986
17	0xbfdaab48	-1.7083521
18	0xbfd132d0	-1.6343632
19	0x3f8f308f	1.1186694
20	0x3ed31512	0.41227013
21	0xbd846a66	-0.064656064
22	0x3f09ba4b	0.53799886
23	0xbfa842af	-1.314535
24	0x3eea2827	0.4573376
25	0xbf04b207	-0.5183415
26	0x3ed7dd0d	0.42160836
27	0x3e8e7337	0.27822277
28	0xbe6b526b	-0.22980659
29	0x3dcd04c8	0.100106776
30	0x3f87ad9d	1.0599858
31	0xbfd1dfd4	-1.6396432
32	0x3f021dc0	0.50826645
33	0x3f0dc922	0.5538503
34	0x3e8218bf	0.25409505
35	0xbead598c	-0.3385738
36	0xbfea5f0f	-1.831026
37	0xbe64793f	-0.22311877
38	0xc0056a7c	-2.0846243
39	0x3bb78fdf	0.0056018676
40	0xbec51afb	-0.38497147
41	0xc005ee2b	-2.0926616
42	0xbef4a18d	-0.47779503
43	0x3f814e78	1.0102072
44	0xbebad10c	-0.36487615
45	0xbd892a6c	-0.066975445
46	0xc00543d3	-2.0822647
47	0x3d7c07e6	0.06153097
48	0x3f0cd64a	0.5501448
49	0xbe67f987	-0.22653781
50	0xbf5f8ed8	-0.8732734
51	0x3dc55b61	0.0963657
52	0xbfcb8b10	-1.5901814
53	0x3e9f0c66	0.31064147
54	0xc01f63d8	-2.490469
55	0x3f01bfc3	0.5068323
56	0x3ef6dbb7	0.48214504
57	0x3f0db55f	0.55354875
58	0x3f073380	0.5281296
59	0xbf75dc87	-0.96039623
60	0xbe78a5be	-0.24281976
61	0x3c74837b	0.0149239255
62	0xbf131ad5	-0.5746282
63	0xbf47d97e	-0.7806624
64	0xbf852c70	-1.0404186
65	0xbf7d4f26	-0.98948896
66	0x3efa87df	0.48931786
67	0xbf935c81	-1.1512605
68	0x3f022a89	0.50846153
69	0x3d439c71	0.047756616
70	0xbef22f91	-0.47301915
71	0xbd5b8359	-0.05359206
72	0xbec1ea21	-0.3787394
73	0x3e611373	0.21980076
74	0x3e53e7fc	0.20693964
75	0x3ba9426a	0.005165388
76	0x3f009149	0.5022169
77	0x3e5a4625	0.2131582
78	0xc010cfe4	-2.2626886
79	0xbf6baddf	-0.9206218
80	0xbf3cbd06	-0.73725927
81	0x3ebf0493	0.37308177
82	0x3f0cf0f2	0.55055153
83	0xbfc8fb71	-1.5701734
84	0x3ed71ca3	0.42014036
85	0xbe548bef	-0.20756505
86	0x3dc09c7b	0.09404846
87	0xbfe6e0f5	-1.8037401
88	0x3f44bae2	0.7684766
89	0xbfd4c522	-1.662266
90	0x3ea7cd79	0.3277395
91	0xbf1761ee	-0.59133804
92	0xbfe4c9f5	-1.7874132
93	0x3e421c8a	0.189562
94	0xbdb33175	-0.087496676
95	0x3e7b42a8	0.24537146
96	0x3e038132	0.12842253
97	0xbc65e0c0	-0.014030635
98	0x3f34fb86	0.70696294
99	0xbfb6aa58	-1.4270735
100	0xbfef253c	-1.8683238
101	0xbe326ccb	-0.17424314
102	0x3e3e44e2	0.18580964
103	0xbda1e79e	-0.079055056
104	0xbe946e7f	-0.28990552
105	0xbe6a0a7b	-0.2285556
106	0xbfb942b6	-1.4473484
107	0x3d897d14	0.0671331
108	0x3f3a92ef	0.7288045
109	0x3e49d150	0.19708753
110	0xc00a3aff	-2.1598508
111	0xbc93616d	-0.017990792
112	0xbfaaf0cb	-1.3354734
113	0xbfd69412	-1.6763937
114	0x3ed9a962	0.4251204
115	0x3e438154	0.19092304
116	0x3f51bf7a	0.81932795
117	0x3deb07ed	0.11476121
118	0xbd511913	-0.051049303
119	0xbff8b265	-1.9429442
120	0x3ebd5850	0.3698144
121	0xbe7a297d	-0.24429889
122	0xbe495a26	-0.19663295
123	0xc0079fac	-2.1191206
124	0xbe36e3bd	-0.17860313
125	0xbe327794	-0.17428428
126	0x3e9c39e5	0.3051292
127	0x3e9a5d80	0.3014946

l3.bias f4 [16]
0	0x3d8f5ca2	0.0700009
1	0xbe169d3a	-0.14708415
2	0x3f1f4aa1	0.6222325
3	0xbe68601e	-0.22692916
4	0x3e0d21dd	0.13782449
5	0xbe71d440	-0.23616123
6	0xbe10c772	-0.14138582
7	0xbee7e728	-0.45293546
8	0xbe2491b6	-0.1607121
9	0xbd0c0e22	-0.034193166
10	0x3d63002d	0.05542009
11	0x3f1a4f80	0.6027756
12	0xbf0f9515	-0.56086856
13	0xbe53fbb1	-0.20701481
14	0xbe5a19a8	-0.2129885
15	0xbda322a0	-0.079655886
